…
2 = 32\n","--------------------------------------------------------------------------------\n","dataset_root:    all_data/val\t dataset: /\n","all_data/val/\n","sub-directory:\t/.\t num samples: 462\n","--------------------------------------------------------------------------------\n","No Transformation module specified\n","model input parameters 64 600 20 1 256 256 208 100 None VGG BiLSTM CTC\n","loading pretrained model from best_accuracy.pth\n","Model:\n","DataParallel(\n","  (module): Model(\n","    (FeatureExtraction): VGG_FeatureExtractor(\n","      (ConvNet): Sequential(\n","        (0): Conv2d(1, 32, kernel_size=(3, 3), stride=(1, 1), padding=(1, 1))\n","        (1): ReLU(inplace=True)\n","        (2): MaxPool2d(kernel_size=2, stride=2, padding=0, dilation=1, ceil_mode=False)\n","        (3): Conv2d(32, 64, kernel_size=(3, 3), stride=(1, 1), padding=(1, 1))\n","        (4): ReLU(inplace=True)\n","        (5): MaxPool2d(kernel_size=2, stride=2, padding=0, dilation=1, ceil_mode=False)\n","        (6): Conv2d(64, 128, kernel_size=(3, 3), stride=(1, 1), padding=(1, 1))\n","        (7): ReLU(inplace=True)\n","        (8): Conv2d(128, 128, kernel_size=(3, 3), stride=(1, 1), padding=(1, 1))\n","        (9): ReLU(inplace=True)\n","        (10): MaxPool2d(kernel_size=(2, 1), stride=(2, 1), padding=0, dilation=1, ceil_mode=False)\n","        (11): Conv2d(128, 256, kernel_size=(3, 3), stride=(1, 1), padding=(1, 1), bias=False)\n","        (12): BatchNorm2d(256, eps=1e-05, momentum=0.1, affine=True, track_running_stats=True)\n","        (13): ReLU(inplace=True)\n","        (14): Conv2d(256, 256, kernel_size=(3, 3), stride=(1, 1), padding=(1, 1), bias=False)\n","        (15): BatchNorm2d(256, eps=1e-05, momentum=0.1, affine=True, track_running_stats=True)\n","        (16): ReLU(inplace=True)\n","        (17): MaxPool2d(kernel_size=(2, 1), stride=(2, 1), padding=0, dilation=1, ceil_mode=False)\n","        (18): Conv2d(256, 256, kernel_size=(2, 2), stride=(1, 1))\n","        (19): ReLU(inplace=True)\n","      )\n","    )\n","    (AdaptiveAvgPool): AdaptiveAvgPool2d(output_size=(None, 1))\n","    (SequenceModeling): Sequential(\n","      (0): BidirectionalLSTM(\n","        (rnn): LSTM(256, 256, batch_first=True, bidirectional=True)\n","        (linear): Linear(in_features=512, out_features=256, bias=True)\n","      )\n","      (1): BidirectionalLSTM(\n","        (rnn): LSTM(256, 256, batch_first=True, bidirectional=True)\n","        (linear): Linear(in_features=512, out_features=256, bias=True)\n","      )\n","    )\n","    (Prediction): Linear(in_features=256, out_features=208, bias=True)\n","  )\n",")\n","Modules, Parameters\n","module.FeatureExtraction.ConvNet.0.weight 288\n","module.FeatureExtraction.ConvNet.0.bias 32\n","module.FeatureExtraction.ConvNet.3.weight 18432\n","module.FeatureExtraction.ConvNet.3.bias 64\n","module.FeatureExtraction.ConvNet.6.weight 73728\n","module.FeatureExtraction.ConvNet.6.bias 128\n","module.FeatureEx
…
